model/model1.pth (torch, 26835 bytes, 4 tensors)

linear1.weight f4 [1024, 3]
-0.27925885 0.23590812 -0.22094186 -0.43682185 -0.14488833 -0.0299143 -0.18768275 0.23326202
-0.20191412 -0.15560678 -0.123391554 -0.359318 -0.12925905 0.013775723 -0.015105974 -0.43817675
0.015319803 -0.10005578 -0.11401332 -0.4833973 -0.45057675 -0.40305507 0.43693307 -0.3233587
-0.2631789 -0.51853514 0.050349135 -0.07201345 0.079376735 -0.62496835 -0.25743344 -0.5891343
0.059136778 0.0671607 -0.31466478 -0.15883243 -0.29759252 -0.17836724 -0.45177928 0.20294349
-0.7370229 -0.5824338 -0.6387655 0.06345704 -0.06707703 -0.17938721 0.19785751 -0.15870285
-0.30545458 0.044309393 -0.040830363 -0.16502367 -0.057462644 -0.0027687147 -0.42989877 0.14596993
-0.16596603 -0.0010704821 0.003905812 -0.003380789 -0.45084524 -0.24273789 -0.5085661 -0.065269485
-0.31339672 0.020753575 0.04853046 -0.6451634 -0.13285238 -0.40252894 -0.54714036 0.067352705
-0.07332936 -0.55147 0.008688762 -0.4900868 -0.33601856 -0.16392104 0.030785033 -0.14810646
-0.4041512 -0.41402352 0.31667423 -0.2694879 0.14629275 -0.541222 -0.65249133 0.07886574
-0.31798115 -0.17418134 -0.084019355 -0.4031049 0.018996168 -0.43880793 -0.037192196 -0.044461768
-0.5498249 -0.117144674 -0.22076899 0.100598544 -0.32168072 -0.52833605 -0.38145757 -0.33077756
-0.19222595 -0.42918944 -0.22897232 0.013725695 -0.45132628 -0.23427331 -0.36687666 0.05493037
-0.19019994 -0.4528761 0.01498418 -0.49552915 -0.12986752 -0.13660498 -0.32252067 0.009036992
0.13909176 -0.57869077 -0.305116 -0.45383063 0.2958484 -0.34344277 -0.17976364 -0.34897304
-0.21539675 0.08530056 -0.5218399 -0.19837727 -0.026375106 -0.12154475 0.0028114535 -0.013077646
-0.10547999 0.0058988603 0.18233326 -0.5913324 -0.44359332 -0.06854087 0.08026561 -0.7091529
-0.41037962 -0.27584398 -0.25600684 -0.35189754 0.435311 -0.39953005 -0.5050367 0.4813229
-0.5034969 -0.11016301 0.12698562 -0.11363547 0.10808785 -0.3593524 -0.26115477 -0.013762832
-0.30620512 -0.07423644 -0.5046357 -0.17537497 0.0015353626 0.09723877 -0.32712576 -0.3573185
-0.017327951 0.011456969 -0.64977443 -0.24885523 -0.04673356 -0.42173696 -0.26432884 -0.21918589
0.021336649 0.1442191 -0.4908698 -0.5277534 -0.10043121 0.2887609 -0.32885227 -0.2069529
-0.54954576 0.15156585 0.099825285 -0.35522136 -0.311901 -0.30410057 -0.074696586 -0.0044089737
-0.032670513 -0.2211178 0.006048215 -0.5292647 -0.3780362 0.0146608045 -0.320342 -0.54704624
0.07241037 -0.17550623 0.18547365 -0.34139913 -0.16461356 -0.49047318 -0.4802524 -0.18444858
-0.0043911855 -0.029890703 -0.21441622 -0.31584775 0.056118008 -0.12752208 0.10043651 -0.4525426
-0.18245314 -0.5684999 0.010400199 -0.511326 0.24150838 -0.49742278 0.007210819 -0.04032382
-0.20500991 -0.097646266 -0.49570793 -0.042162303 -0.087799266 0.045281693 -0.28728753 -0.5237137
0.09969995 -0.3114854 0.081198394 -0.25927323 -0.425081 0.18492426 -0.63220215 -0.78119934
-0.42082563 0.08072882 -0.2567014 -0.3649529 -0.43554017 0.06827961 -0.3275375 -0.052157376
-0.018200744 0.13438894 -0.46406177 -0.6494588 -0.19440602 0.12779409 -0.10931055 -0.27708727
00000000: 04fb 8ebe e691 713e 953e 62be 1da7 dfbe
00000010: 9b5d 14be d60e f5bc e82f 40be 3ddc 6e3e
00000020: 93c2 4ebe 6257 1fbe b6b4 fcbd 87f8 b7be
00000030: 7c5c 04be 92b3 613c 0c7f 77bc b458 e0be
00000040: e9ff 7a3c 0bea ccbd d17f e9bd da7f f7be
00000050: ffb1 e6be 3c5d cebe b1b5 df3e 468f a5be
00000060: 63bf 86be b8be 04bf e53a 4e3d ca7b 93bd
00000070: 4590 a23d edfd 1fbf 51ce 83be 81d1 16bf
00000080: 6839 723d 8d8b 893d be1b a1be f8a4 22be
00000090: 0c5e 98be e7a5 36be 9d4f e7be 6bd0 4f3e
000000a0: 88ad 3cbf 621a 15bf 2386 23bf c4f5 813d
000000b0: af5f 89bd 48b1 37be 299b 4a3e 0083 22be
000000c0: 8b64 9cbe c47d 353d bd3d 27bd f7fb 28be
000000d0: f35d 6bbd 5373 35bb b11b dcbe 2479 153e
000000e0: 00f3 29be 6b4f 8cba a7f8 7f3b 3a90 5dbb
000000f0: 30d5 e6be 4890 78be 6331 02bf 02ac 85bd
00000100: 8975 a0be 6703 aa3c e0c7 463d 6e29 25bf
00000110: 740a 08be 4618 cebe 6411 0cbf 37f0 893d
00000120: b42d 96bd 232d 0dbf 4f5b 0e3c a8ec fabe
00000130: a00a acbe ebda 27be e530 fc3c 38a9 17be
00000140: e8ec cebe e4fa d3be 2023 a23e 51fa 89be
00000150: c4cd 153e 868d 0abf ac09 27bf 5c84 a13d
00000160: 6dce a2be 985c 32be 5712 acbd c463 cebe
00000170: da9d 9b3c 6fab e0be d856 18bd 8b1d 36bd
00000180: 53c1 0cbf 8ce9 efbd 4411 62be 9c06 ce3d
00000190: 56b3 a4be 0841 07bf 684e c3be ad5b a9be
000001a0: e1d6 44be b8be dbbe b877 6abe bde1 603c
000001b0: 3d14 e7be 58e5 6fbe 42d7 bbbe abfe 603d
000001c0: c6c3 42be 60df e7be 3580 753c ffb5 fdbe
000001d0: fefb 04be 2de2 0bbe 6e21 a5be e40f 143c
000001e0: 126e 0e3e 1425 14bf 2a38 9cbe 7d5c e8be
000001f0: 7179 973e bbd7 afbe f613 38be 98ac b2be
00000200: f790 5cbe 0fb2 ae3d 4d97 05bf 6923 4bbe
00000210: 9b10 d8bc 74ec f8bd 5d40 383b 9f43 56bc
00000220: e505 d8bd 3a4b c13b 92b5 3a3e 8f61 17bf
00000230: aa1e e3be 285f 8cbd 4c62 a43d 0b8b 35bf
00000240: 471d d2be 6c3b 8dbe 5413 83be ea2b b4be
00000250: 15e1 de3e 348f ccbe 164a 01bf f56f f63e
00000260: 2ce5 00bf 259d e1bd 8508 023e b7b9 e8bd
00000270: 2a5d dd3d 0afd b7be 14b6 85be 807d 61bc
00000280: ebc6 9cbe 4609 98bd ce2f 01bf 7f95 33be
00000290: 383e c93a 1f25 c73d 077d a7be 73f2 b6be
000002a0: 59f3 8dbc 03b6 3b3c 9e57 26bf e8d3 7ebe
000002b0: b06b 3fbd e8ed d7be 1c56 87be 4472 60be
000002c0: 32ca ae3c 2cae 133e 4953 fbbe d91a 07bf
000002d0: e1ae cdbd 78d8 933e 535f a8be 76eb 53be
000002e0: 08af 0cbf 1434 1b3e 3371 cc3d 93df b5be
000002f0: 7db1 9fbe 12b3 9bbe 86fa 98bd 2779 90bb
00000300: 84d1 05bd b46c 62be 1b30 c63b e47d 07bf
00000310: f68d c1be df33 703c de03 a4be 390b 0cbf
00000320: e34b 943d e8b7 33be ceec 3d3e decb aebe
00000330: 7590 28be 4d1f fbbe a4e3 f5be 17e0 3cbe
00000340: efe3 8fbb 59dd f4bc ed8f 5bbe ccb6 a1be
00000350: ffdb 653d 2695 02be a8b1 cd3d aab3 e7be
00000360: ffd4 3abe 3689 11bf 9965 2a3c 43e6 02bf
00000370: f94d 773e 33ae febe bc48 ec3b 972a 25bd
00000380: 1eee 51be c4fa c7bd 6ecd fdbe 61b2 2cbd
00000390: 1ad0 b3bd 4c79 393d 5a17 93be 1a12 06bf
000003a0: 7d2f cc3d 047b 9fbe 584b a63d 76bf 84be
000003b0: 38a4 d9be c95c 3d3e 00d8 21bf aefc 47bf
000003c0: 7576 d7be 2755 a53d 5e6e 83be 1bdb babe
000003d0: 1fff debe 2ed6 8b3d ffb2 a7be f9a2 55bd
000003e0: ba19 95bc 419d 093e 8199 edbe ef42 26bf
000003f0: 5f12 47be 74dc 023e 36de dfbd 62de 8dbe

linear1.bias f4 [1024]
-0.19206871 0.19275156 -0.63606274 -0.54574895 -0.49454394 -0.23862804 -0.2057898 0.010890665
-0.8897658 0.23797724 -0.68791777 0.008171782 0.053441014 0.041919585 -0.09834676 -0.054469645
-0.40016 -0.24753039 -0.093225226 -0.94564015 -0.10229956 -0.822981 0.26945972 -0.5378213
-0.17561957 0.4258017 -0.21262273 0.5164077 -0.16483065 -0.6961782 -0.1837135 -0.01197761
-0.38563314 -0.5664307 0.56301093 -0.40967762 0.57060087 -0.7788932 -0.48937252 -0.3326971
-0.62140447 0.4380156 -0.112520285 -0.5877314 -0.23077878 -0.68145186 -0.752747 -0.16667838
0.28483754 0.3735944 -0.3283304 -0.6977067 -0.72878456 -0.49961555 -0.6549734 0.23700897
-0.19667122 -0.54215956 -0.7745434 -0.868016 0.42862618 0.19669518 -0.5081531 -0.3669982
-0.5603932 -0.6570252 -0.18743286 0.270665 0.28709972 -0.053247023 -1.2128669 -0.22877672
-0.62948793 0.30041662 -1.0916605 0.039166536 -0.43049324 -0.18610619 -0.37623549 -0.513629
-0.4999775 0.2408206 0.2897325 -0.54219735 0.14062543 -0.1770186 -0.24543056 0.23253807
0.31081155 -0.8616585 -0.79186934 -0.7472768 -0.109690145 -0.26369867 -0.3688765 -0.11494965
-0.19899799 -0.13062677 -0.38879746 0.47152942 -0.9388833 -0.55996877 -0.45984316 0.17459485
-0.7687116 -0.5443116 -0.84504753 0.23775788 0.35031635 -0.11534159 -0.28592226 -0.15708381
-0.9024716 -0.19646762 0.44209442 -0.3513179 0.4652671 -0.47684807 0.05037252 -0.01880315
-0.78644514 -0.34774065 -0.26447842 -0.82872605 -0.5148238 0.3685407 -0.5561662 0.016842829
-0.36550504 -0.58733034 -0.09983059 0.49775735 0.11648382 -0.16446476 -0.007058459 0.13302588
0.4400289 -0.115992635 -0.37900424 -0.47872758 -0.28522223 -0.019474879 -0.83231056 -0.1835605
-0.28125623 -0.16687906 -0.44112188 -0.8343943 -0.28592542 0.074657336 -0.7445429 -0.13853507
-0.6138769 0.09658005 -0.25393918 -0.4320789 0.40955055 -0.61098194 -0.63260347 -0.08365382
-0.79381776 -0.24182455 0.14521047 -0.90214515 -0.5642344 -0.16906884 -0.12161 -0.22933425
-0.68591833 -0.36876565 -0.44253644 -0.6911185 0.22502215 -1.029009 -0.6720181 -0.6835246
-0.49595666 -0.2851383 -0.76715493 -0.70915496 -0.36154813 -0.28816423 -0.7330626 -0.84246653
-0.47522703 -0.5480507 -0.7962586 0.18857351 -0.62223464 -0.74142975 0.0030983181 0.041141544
0.09202999 -0.06759192 0.085412584 -0.37171543 0.24540056 0.26727918 -0.58529454 -0.5457736
-0.25545555 0.20376758 -0.6632324 0.28379932 -0.11408204 -0.76841414 0.06685902 -0.34226006
-0.12168422 -0.41517857 -0.012976707 0.42175734 -0.49215123 -0.4356402 -1.0688663 0.13061991
-0.8961235 -0.9580166 -0.41306362 -0.7969879 0.017114153 -0.25542867 -0.31044632 0.14257494
-0.40253747 -0.18619956 -0.87293935 -0.14715624 0.30506626 0.22503163 -0.09649784 0.17623423
-0.99220175 0.08553858 -0.2616812 -0.114436805 -0.08114346 -0.7930173 -0.37298205 -0.49695703
-1.1314967 -1.0044762 -0.5142846 -0.42043135 -0.34802026 0.078174435 -0.3416955 -0.7656347
-0.27902362 -0.39015615 0.22653566 -0.10117674 0.2084806 -1.4420427 -0.488313 -0.104578294
00000000: a9ad 44be aa60 453e 02d5 22bf 34b6 0bbf
00000010: dd34 fdbe e95a 74be 90ba 52be c36e 323c
00000020: b1c7 63bf 4eb0 733e 611b 30bf f0e2 053c
00000030: f7e4 5a3d dfb3 2b3d 076a c9bd 901b 5fbd
00000040: c6e1 ccbe 9b78 7dbe deec bebd 7915 72bf
00000050: 6f82 d1bd e2ae 52bf a0f6 893e a8ae 09bf
00000060: 9ed5 33be ae02 da3e c6b9 59be 4c33 043f
00000070: 5ec9 28be bc38 32bf 641f 3cbe bd3d 44bc
00000080: b571 c5be 9a01 11bf 7c21 103f 44c1 d1be
00000090: e612 123f 8b65 47bf 098f fabe 4657 aabe
000000a0: 5d14 1fbf 9543 e03e 0971 e6bd 9175 16bf
000000b0: 4651 6cbe a173 2ebf 07b4 40bf bdad 2abe
000000c0: 3ad6 913e c447 bf3e ec1a a8be e89c 32bf
000000d0: a091 3abf 9ccd ffbe 56ac 27bf 7bb2 723e
000000e0: 2e64 49be f8ca 0abf 7a48 46bf 4c36 5ebf
000000f0: e474 db3e 766a 493e 5216 02bf 30e7 bbbe
00000100: ee75 0fbf ce32 28bf 66ee 3fbe 9a94 8a3e
00000110: bcfe 923e 8d19 5abd 393f 9bbf 7244 6abe
00000120: 1f26 21bf 35d0 993e 88bb 8bbf 176d 203d
00000130: 9c69 dcbe 9f92 3ebe f0a1 c0be 317d 03bf
00000140: 0dfd ffbe ad99 763e d157 943e 72cd 0abf
00000150: 1d00 103e 5d44 35be 2652 7bbe 761e 6e3e
00000160: b122 9f3e a795 5cbf f3b7 4abf 884d 3fbf
00000170: 3aa5 e0bd 8303 87be 61dd bcbe b96a ebbd
00000180: 21c6 4bbe 06c3 05be 7610 c7be 4e6c f13e
00000190: a85a 70bf 1d5a 0fbf 9070 ebbe fec8 323e
000001a0: 49ca 44bf 0158 0bbf 0955 58bf cd76 733e
000001b0: aa5c b33e 3638 ecbd 6764 92be 94da 20be
000001c0: 6108 67bf cf2e 49be 335a e23e f1df b3be
000001d0: 7d37 ee3e 6e25 f4be 6a53 4e3d 1009 9abc
000001e0: 7854 49bf 100b b2be b769 87be 6427 54bf
000001f0: 7ecb 03bf 5eb1 bc3e e860 0ebf f9f9 893c
00000200: 7a23 bbbe 485b 16bf fb73 ccbd 0dda fe3e
00000210: 128f ee3d 7369 28be a54a e7bb f037 083e
00000220: 784b e13e 8c8d edbd d80c c2be c81b f5be
00000230: a608 92be c889 9fbc 4e12 55bf 49f7 3bbe
00000240: d100 90be 58e2 2abe bada e1be dd9a 55bf
00000250: d164 92be f2e5 983d 5d9a 3ebf 23dc 0dbe
00000260: 0927 1dbf c3cb c53d 5104 82be 7239 ddbe
00000270: 9cb0 d13e 5069 1cbf 4df2 21bf b252 abbd
00000280: a437 4bbf dba0 77be 0eb2 143e fcf2 66bf
00000290: aa71 10bf 6220 2dbe aa0e f9bd 99d6 6abe
000002a0: 5898 2fbf dace bcbe 2394 e2be 24ed 30bf
000002b0: 356c 663e 91b6 83bf 6109 2cbf 78fb 2ebf
000002c0: 08ee fdbe a6fd 91be 4464 44bf 2e8b 35bf
000002d0: d61c b9be 438a 93be fea9 3bbf e3ab 57bf
000002e0: f550 f3be 0d4d 0cbf 9bd7 4bbf 6a19 413e
000002f0: c54a 1fbf 57ce 3dbf 270d 4b3b 0984 283d
00000300: 387a bc3d a26d 8abd cbec ae3d 7c51 bebe
00000310: 494a 7b3e d1d8 883e ddd5 15bf d2b7 0bbf
00000320: 12cb 82be 73a8 503e 99c9 29bf 254e 913e
00000330: d8a3 e9bd cab6 44bf 62ed 883d b63c afbe
00000340: 9435 f9bd 4992 d4be 419c 54bc 94f0 d73e
00000350: 3ffb fbbe 3b0c dfbe 9cd0 88bf 3ac1 053e
00000360: 5a68 65bf 9340 75bf 137d d3be 6607 4cbf
00000370: fb32 8c3c 8cc7 82be d2f2 9ebe 2aff 113e
00000380: 6419 cebe 19ab 3ebe f478 5fbf 20b0 16be
00000390: a531 9c3e b16e 663e a9a0 c5bd bf76 343e
000003a0: ef00 7ebf da2e af3d 14fb 85be d85d eabd
000003b0: 8b2e a6bd 2f03 4bbf 81f7 bebe 2771 febe
000003c0: e2d4 90bf ad92 80bf 28a8 03bf c742 d7be
000003d0: b62f b2be eb19 a03d b6f2 aebe a300 44bf
000003e0: 2fdc 8ebe 8cc2 c7be f7f8 673e c035 cfbd
000003f0: f07b 553e db94 b8bf 2904 fabe 252d d6bd

linear2.weight f4 [2, 1024]
-0.004713748 -0.007653425 0.0056091226 -0.0007387921 -0.0002200192 0.005322732 -0.009929027 -0.0036409085
0.01779636 0.015037442 0.024536872 -0.029526033 0.02269457 -0.025693271 -0.0030764989 0.0041215178
-0.0021035925 -0.00055992266 -0.0020555002 -0.0038747243 0.027747206 0.033401366 -0.0078630205 0.00898823
-0.008494652 0.00047649443 -0.00601016 0.02386123 0.0121519165 -0.03655158 -0.008623151 -0.0056975046
-0.010481488 0.008031436 0.019737713 0.0063916077 0.0022163428 -0.016492961 -0.0013756963 0.0006068883
-0.0037267085 -0.005281396 0.027228478 0.0008575982 -0.0014403095 -0.0012599716 0.014094178 -0.003033888
-0.028630812 -0.0048354506 -0.025357582 -0.0021274374 -0.009540425 -0.018128805 0.010566165 0.0091808075
0.02144855 0.022896621 0.019244524 -0.025017262 0.021322634 0.02623321 -0.00021028916 -0.0012587071
-0.0043733893 -0.011950256 -0.029689211 0.01647114 0.012933955 -0.003135258 -0.0004896137 0.022419697
0.014015217 0.013715282 -0.0016615875 0.0225433 -0.008323525 0.027815018 0.0008510373 0.018864993
-0.027783375 0.055871166 -0.0006220127 0.009587485 0.000106584754 0.0016725052 -0.017999588 0.027349677
0.002344232 -0.0018849734 -0.004760753 0.01964875 -0.0066956277 -0.00989667 -0.006986063 -0.014724996
-0.007074773 0.014289264 0.0029020258 0.011635622 -0.0050485507 -0.010713476 -0.0026479943 0.015914254
0.023087839 0.002412531 -0.019257039 0.020944018 -0.023393905 0.034908783 0.017793283 -0.005035052
-0.00600949 0.01125009 -0.027234547 -0.0036864055 -0.032944504 -0.00024609725 5.6834513e-05 -0.017944241
0.0011157532 0.005035526 0.009649339 0.0067033344 0.0051032742 0.009487605 0.0164955 0.00024151373
0.007954012 -0.003356729 0.005538615 0.018082583 -0.0014380803 -0.019304305 0.0041748425 -0.007597234
0.0044561997 0.0043983124 0.0014931373 0.00053782674 0.0028083387 -0.00010207569 -0.00032050416 0.008564723
-0.015219338 0.0070639886 0.00021443272 -0.005311244 -0.00841135 -0.0017524787 -0.0070084035 -0.002664801
-0.030465528 0.0018261913 -0.0047533214 -0.002797028 0.036904626 -0.017079718 0.007562847 -0.0012137297
-0.0031287984 0.0017809675 -0.020452447 0.00091644865 -0.023557045 0.00232983 -0.00057683303 -0.00066750456
0.008423386 -0.000119295204 0.0066477866 -0.0025607955 0.025329718 -0.007523642 -0.0028655406 0.009499229
0.0050992947 -0.012637995 -0.011806738 -0.002774798 -0.0012908401 0.021487348 0.013294814 0.002042174
-0.003610839 -0.021766309 -0.0015844235 -0.0019343238 0.0008085913 -0.012456887 -0.0103027 -0.06775212
0.00801202 -0.0020138836 0.0052967705 0.009323293 0.002460555 -0.020928051 -0.005381615 -0.0063546128
0.003660889 -0.00012961397 -0.0048110937 -0.010755266 -0.05913725 -0.03753809 0.004113216 -0.011749457
-0.0019097944 -0.0027562408 0.029645685 -0.010821061 -0.0017398682 0.0030190498 -0.002958993 -0.0034588762
0.002292389 -0.0027615605 0.0065430794 -0.0024930893 0.0041595064 -0.013364812 -0.009170507 0.015743662
-0.028578825 0.008329175 0.0023259858 0.010880735 0.008215309 0.0045206975 -0.0005078204 -0.012769492
-0.009298515 0.002908388 0.00995845 0.007737793 -0.00071870926 -0.01109068 -0.015896767 -0.0107631935
0.0009557034 0.02704125 -0.007754595 -0.006405834 -0.0033968391 -0.00034942324 -0.009537096 -0.011517885
0.0019170806 -0.020611633 0.0059075765 -0.0035562925 -0.019619312 -0.025938267 0.012196338 -0.0011799639
00000000: c975 9abb 95c9 fabb bbcc b73b 80ab 41ba
00000010: f4b4 66b9 506a ae3b 5cad 22bc 4f9c 6ebb
00000020: acc9 913c 9a5f 763c 8d01 c93c 94e0 f1bc
00000030: f6e9 b93c b27a d2bc 169f 49bb cc0d 873b
00000040: 6ddc 09bb c6c7 12ba 92b5 06bb 16ef 7dbb
00000050: 1c4e e33c dfcf 083d e6d3 00bc 5e43 133c
00000060: 272d 0bbc 00d2 f939 e0f0 c4bb a078 c33c
00000070: d518 473c 1cb7 15bd 1e48 0dbc 22b2 babb
00000080: 8cba 2bbc 4996 033c fcb0 a13c b170 d13b
00000090: 1040 113b 3f1c 87bc b550 b4ba 9617 1f3a
000000a0: cb3b 74bb 900f adbb 420e df3c 71d0 603a
000000b0: c4c8 bcba a225 a5ba 44eb 663c 32d4 46bb
000000c0: 2a8b eabc b372 9ebb b4ba cfbc 7a6c 0bbb
000000d0: 714f 1cbc dc82 94bc b51d 2d3c 196b 163c
000000e0: dfb4 af3c b291 bb3c b1a6 9d3c 00f1 ccbc
000000f0: ceac ae3c 07e7 d63c 1181 5cb9 34fb a4ba
00000100: a64e 8fbb 02cb 43bc ca36 f3bc 7cee 863c
00000110: f0e8 533c e778 4dbb 6b59 00ba 83a9 b73c
00000120: 15a0 653c 10b6 603c a0c9 d9ba baac b83c
00000130: 655f 08bc 52dc e33c 2518 5f3a c28a 9a3c
00000140: f699 e3bc 2ad9 643d 910e 23ba d414 1d3c
00000150: 4186 df38 f637 db3a df73 93bc 6e0c e03c
00000160: b0a1 193b 3611 f7ba 1700 9cbb 6af6 a03c
00000170: ff66 dbbb a425 22bc 58eb e4bb 1c41 71bc
00000180: 7fd3 e7bb 841d 6a3c ea2f 3e3b 56a3 3e3c
00000190: 506e a5bb 9387 2fbc f989 2dbb 9c5e 823c
000001a0: b522 bd3c 8e1b 1e3b f0c0 9dbc ca92 ab3c
000001b0: 93a4 bfbc 83fc 0e3d 38c3 913c 14fd a4bb
000001c0: 42eb c4bb 4c52 383c fc1a dfbc 9f97 71bb
000001d0: d1f0 06bd 9d06 81b9 9861 6e38 cdff 92bc
000001e0: 773e 923a 0e01 a53b 4318 1e3c a5a7 db3b
000001f0: 5e39 a73b e671 1b3c 9221 873c d93e 7d39
00000200: 8b51 023c 91fc 5bbb 457d b53b ed21 943c
00000210: f87d bcba 1024 9ebc 1ecd 883b 38f2 f8bb
00000220: 5005 923b b81f 903b 60b5 c33a f1fc 0c3a
00000230: 1b0c 383b 7811 d6b8 5709 a8b9 0d53 0c3c
00000240: 885a 79bc 0879 e73b 58d9 6039 f209 aebb
00000250: c2cf 09bc 6db3 e5ba c0a6 e5bb f1a3 2ebb
00000260: d892 f9bc d05c ef3a c0c1 9bbb 584e 37bb
00000270: 4e29 173d c4ea 8bbc c2d1 f73b 0316 9fba
00000280: 870c 4dbb 5a6f e93a e48b a7bc d43d 703a
00000290: b4fa c0bc 10b0 183b 9c36 17ba 79fb 2eba
000002a0: 3e02 0a3c 202e fab8 add5 d93b 05d3 27bb
000002b0: 4580 cf3c e288 f6bb cbcb 3bbb a7a2 1b3c
000002c0: fc17 a73b 980f 4fbc 0c71 41bc 63d9 35bb
000002d0: 6831 a9ba 3c06 b03c 7ed2 593c ffd5 053b
000002e0: d3a3 6cbb 424f b2bc 6eac cfba 2389 fdba
000002f0: a5f7 533a f917 4cbc a8cc 28bc a0c1 8abd
00000300: d944 033c 5cfb 03bb 8890 ad3b bac0 183c
00000310: 4341 213b 4e71 abbc 4258 b0bb 5b3a d0bb
00000320: 87eb 6f3b fce8 07b9 61a6 9dbb db36 30bc
00000330: e739 72bd 8ac1 19bd 28c8 863b cb80 40bc
00000340: 1152 faba 0ca2 34bb 82db f23c d24a 31bc
00000350: 4a0c e4ba 40db 453b aaeb 41bb 50ae 62bb
00000360: e83b 163b 4cfb 34bb 5467 d63b 1963 23bb
00000370: 784c 883b 16f8 5abc e53f 16bc daf8 803c
00000380: 241e eabc 1877 083c 916f 183b 1c45 323c
00000390: 8199 063c 5c22 943b 401f 05ba 2237 51bc
000003a0: cc58 18bc a79a 3e3b c428 233c 508d fd3b
000003b0: c367 3cba afb5 35bc f039 82bc 1b58 30bc
000003c0: 2b88 7a3a 9d85 dd3c 421a febb 08e8 d1bb
000003d0: 819d 5ebb cb32 b7b9 7b41 1cbc 83b5 3cbc
000003e0: 8d46 fb3a bad9 a8bc 5894 c13b b010 69bb
000003f0: aeb8 a0bc 7d7c d4bc 26d3 473c 05a9 9aba

linear2.bias f4 [2]
-0.63579917 -0.5528744
00000000: bcc3 22bf 2d89 0dbf
