model/model1.pth (torch, 26835 bytes, 4 tensors)

linear1.weight f4 [1024, 3]
0	0xbf1a5cad	-0.6029766
1	0xbf253b76	-0.64543855
2	0x3ddca7fb	0.10774227
3	0xbf0f97fe	-0.56091297
4	0xbf0bfc4c	-0.5468185
5	0x3dd4297d	0.10359476
6	0x3ca9bd67	0.020720197
7	0xbe44b0fd	-0.1920814
8	0xbeb818de	-0.35956472
9	0xbdf4cbcf	-0.11952936
10	0x3e0957bb	0.13412373
11	0xbe1e7ede	-0.15478083
12	0xbc8e5e59	-0.017378973
13	0x3cd25300	0.025674343
14	0xbe57ec82	-0.21086314
15	0xbe4e9c90	-0.20176911
16	0x3d7efaaf	0.06225079
17	0xbd59f759	-0.053214405
18	0x3ced0d93	0.028937137
19	0xbe9e052a	-0.30863315
20	0xbea93d8c	-0.3305477
21	0xbdb812b5	-0.08987943
22	0x3d71e630	0.059057415
23	0xbdada14b	-0.0847803
24	0xbe9fbbfc	-0.31198108
25	0x3dfb938f	0.12284004
26	0xbdc57091	-0.09640611
27	0x3d94f7e5	0.07273845
28	0xbeffb5f7	-0.49943516
29	0xbe30ca3e	-0.1726465
30	0xbd958ca4	-0.07302216
31	0xbeb6de3c	-0.35716426
32	0xbb1cb4a3	-0.0023911379
33	0xbd471277	-0.048601594
34	0x3d48a145	0.048981924
35	0xbe0cd1b9	-0.13751878
36	0x3e3ef723	0.18648963
37	0xbf19b0f4	-0.60035634
38	0xbf187322	-0.5955068
39	0xbdecdb62	-0.115652815
40	0xbeaf4e2f	-0.34239337
41	0xbf086358	-0.53276587
42	0xbeb9da94	-0.36299574
43	0x3e4664a3	0.19374327
44	0xbf0aac67	-0.54169315
45	0xbdbfaa97	-0.09358709
46	0xbddc6d5a	-0.10763045
47	0x3c10a52e	0.008828444
48	0x3e30c21f	0.17261551
49	0xbf10de5f	-0.5658931
50	0xbf05ba27	-0.5223717
51	0xba935ef1	-0.0011243505
52	0x3b0da29b	0.0021611813
53	0xbf192d72	-0.5983497
54	0xbf09a19a	-0.5376221
55	0x3dad7a6c	0.08470616
56	0xbdb9ae21	-0.090664156
57	0xbe0078cb	-0.12546079
58	0x3e1a7c53	0.15086488
59	0xbf203490	-0.62580204
60	0xbee9d2dc	-0.45668685
61	0xbe82bcf1	-0.25534776
62	0xbaee55ec	-0.0018183566
63	0xbde6aed1	-0.11263812
64	0x3ddf055a	0.108896926
65	0xbe11561c	-0.14193004
66	0xbedef381	-0.43545154
67	0xbd934ef2	-0.07192792
68	0xbc6d39dd	-0.014479128
69	0xbe26cfb9	-0.16290177
70	0xbf308de3	-0.689665
71	0x3d28878b	0.04114489
72	0xbeb60a14	-0.35554564
73	0x3d478833	0.048713874
74	0xbe924d7f	-0.2857475
75	0x3cc592b8	0.024117813
76	0xbd9a0269	-0.07519991
77	0xbe84cc20	-0.25936985
78	0xbe0c97f1	-0.13729836
79	0x3e2bdf61	0.16784431
80	0xbec56301	-0.38552096
81	0x3dd4f580	0.10398388
82	0xbeae7516	-0.34073704
83	0xbeef7389	-0.46767834
84	0xbe8f67b1	-0.28008798
85	0xbec0fc81	-0.37692645
86	0xbe1341de	-0.14380595
87	0xbed3d6ac	-0.4137472
88	0xbf0f56fe	-0.55992115
89	0x3dd04041	0.101685055
90	0xbf137054	-0.57593274
91	0xbdac9a59	-0.08427877
92	0xbc9d8679	-0.01922916
93	0x3daadad8	0.083425224
94	0xbec97de2	-0.39353853
95	0xbe3d1dee	-0.18468449
96	0xbf196c89	-0.59931237
97	0xbdd6f051	-0.104950555
98	0xbd1332ea	-0.035937227
99	0xbe6e147d	-0.23250003
100	0xbeb83859	-0.3598049
101	0x3d35300d	0.044235278
102	0xbdaed6b9	-0.08537049
103	0xbef37471	-0.47549775
104	0xbba98e29	-0.0051744175
105	0xbed49b0b	-0.41524538
106	0xbf2a89f4	-0.6661675
107	0x3dd986d8	0.106214225
108	0x3e2d3833	0.1691597
109	0xbf0c526e	-0.5481328
110	0xbef7a998	-0.48371577
111	0xbd89a643	-0.06721165
112	0x3daf32d3	0.08554616
113	0xbdeac8d1	-0.11464084
114	0x3db772ef	0.08957469
115	0xbf3dd077	-0.7414622
116	0xbe5c14ed	-0.21492358
117	0x3c13b3b3	0.009015012
118	0xbe370c4a	-0.17875782
119	0xbc8d341a	-0.017236758
120	0x3d7ab1cb	0.061204713
121	0xbef9765d	-0.48723117
122	0xbe0aaacf	-0.13541721
123	0xbd8378c7	-0.06419521
124	0xbed33ca5	-0.41257206
125	0xbd5f4cf7	-0.05451676
126	0xbdabf515	-0.08396355
127	0xbead23f7	-0.33816501
128	0xbeddadda	-0.432967
129	0xbe2ec001	-0.17065431
130	0x3e56ac90	0.20964265
131	0xbe5c2f56	-0.21502432
132	0x3dfc057b	0.12305733
133	0xbedd0fef	-0.4317622
134	0xbe9394fb	-0.288246
135	0xbefa7a8c	-0.4892162
136	0xbf015230	-0.50516033
137	0x3db174c3	0.08664849
138	0xbca83cbe	-0.020536777
139	0x3c83b4ae	0.016077366
140	0xbeba12b5	-0.36342397
141	0x3d95d844	0.0731664
142	0xbe89603c	-0.26831234
143	0xbf43afcd	-0.76440126
144	0xbe551f24	-0.2081266
145	0xbe9b87cb	-0.3037704
146	0x3d5d2dee	0.05399888
147	0xbc964f84	-0.018348463
148	0xbd8cb130	-0.06869733
149	0x3b96f5e5	0.0046069496
150	0xbe304f6e	-0.172178
151	0x3cca25ce	0.02467623
152	0xbd77eba0	-0.060527444
153	0xbcd777fa	-0.026302326
154	0xbe372db6	-0.17888531
155	0x3bd21998	0.0064117424
156	0xbe58cc4c	-0.21171683
157	0x3e85ee01	0.26158145
158	0xbf0998a0	-0.5374851
159	0xbcde75fd	-0.02715587
160	0x3ce8955f	0.028391538
161	0xbf433bb3	-0.7626297
162	0xbea4f42f	-0.32217547
163	0x3ec02d25	0.37534443
164	0xbe9c41e2	-0.30519015
165	0xbe19bb1e	-0.15012786
166	0xbea8ccca	-0.32968742
167	0xbed6ea4e	-0.41975635
168	0xbf1105a3	-0.56649226
169	0xbea59018	-0.32336497
170	0xbe7cbf31	-0.24682309
171	0xbeec5f59	-0.46166494
172	0x3ebbeeaf	0.3670554
173	0xbe927528	-0.28605008
174	0xbe936472	-0.2878757
175	0x3eb20aed	0.3477396
176	0xbed0f5a4	-0.4081241
177	0xbf0c99ab	-0.5492198
178	0xbf452b80	-0.770195
179	0x3dd15cba	0.10222764
180	0x3dcac21c	0.09900305
181	0xbefb21af	-0.49049136
182	0xbe678a6f	-0.22611402
183	0xbd04b12e	-0.032395534
184	0x3caf4fec	0.021400414
185	0xbd3f1320	-0.0466491
186	0x3deeb794	0.116561085
187	0xbec3dfb4	-0.3825661
188	0xbe93f236	-0.2889573
189	0xbedab5f8	-0.42716956
190	0xbe3ce56b	-0.18446891
191	0x3c593bc8	0.013258882
192	0x3c834f80	0.01602912
193	0xbd66f1d4	-0.05638297
194	0xbf010ee7	-0.50413364
195	0xbd9cc098	-0.07653922
196	0x3dca5322	0.098791376
197	0xbf2b21ee	-0.6684865
198	0xbeb1fa56	-0.34761304
199	0xbcaa42c5	-0.020783791
200	0xbd352252	-0.044222184
201	0xbd12c3e7	-0.03583136
202	0x3d0ba0dd	0.034088958
203	0xbf11282e	-0.56701934
204	0x3dab7804	0.083725005
205	0xbe8a071f	-0.26958558
206	0xbeb0dbe3	-0.3454276
207	0xbd2a2f19	-0.041548822
208	0xbf127776	-0.5721353
209	0xbb953127	-0.0045529786
210	0x3d1daf20	0.03849709
211	0xbeb0c819	-0.34527662
212	0xbde62209	-0.112369604
213	0xbddd6f5a	-0.10812254
214	0x3dbae2a1	0.09125257
215	0xbd88d38f	-0.066809766
216	0xbe738942	-0.23782828
217	0xbe0d25fd	-0.13784023
218	0xbef52b42	-0.47884566
219	0xbefc7634	-0.49308932
220	0x3e5af7ab	0.2138354
221	0xbe3ca92f	-0.18423913
222	0x3e2a30ab	0.16620128
223	0xbf1a9453	-0.60382575
224	0xbec29160	-0.38001537
225	0xbe75bd02	-0.23997882
226	0x3e6e7458	0.23286569
227	0xbf214904	-0.6300204
228	0x3c84c8f3	0.016209101
229	0xbda4155e	-0.08011888
230	0xbf110002	-0.56640637
231	0xbe29a225	-0.1656576
232	0xbec2a601	-0.38017276
233	0x3d19ccd0	0.03754884
234	0xbdbc2886	-0.09187417
235	0x3dd36db7	0.10323661
236	0xbf092165	-0.5356658
237	0x3e064e0d	0.13115712
238	0xbf114062	-0.56738865
239	0xbe97374b	-0.29534373
240	0xbdb26919	-0.08711452
241	0x3d8afb76	0.067862436
242	0xbef35206	-0.47523516
243	0xbe5d8428	-0.21632445
244	0xbedbc356	-0.42922467
245	0xbd22f427	-0.039783623
246	0x3d869db1	0.06573046
247	0xbf2fa7ac	-0.6861522
248	0xbe2a2d1b	-0.16618769
249	0x3c91fdf7	0.017821295
250	0xbe0a9d23	-0.13536505
251	0x3e7614e6	0.2403141
252	0x3e0fac2e	0.14030525
253	0xbf092cfc	-0.53584266
254	0xbed64d9f	-0.41856095
255	0xbed004fa	-0.40628797

linear1.bias f4 [1024]
0	0x3ec40393	0.38283977
1	0xbf1a0598	-0.60164785
2	0x3ef780da	0.48340493
3	0xbc2b5bde	-0.010458915
4	0xbf4ca8dc	-0.7994516
5	0xbf01718b	-0.5056388
6	0xbf10a9ff	-0.56509393
7	0xbeb3b218	-0.35096812
8	0xbf46cba5	-0.77654487
9	0x3e4bb07d	0.19891544
10	0x3d9e9afc	0.07744405
11	0xbef449c6	-0.47712535
12	0xbe22f42b	-0.15913455
13	0xbea5ff6a	-0.32421428
14	0xbea7a4ef	-0.32743022
15	0xbb6ec64e	-0.0036434117
16	0xbdac4c7b	-0.08413025
17	0xbe36dee2	-0.1785846
18	0xbf14776b	-0.5799472
19	0xbe155853	-0.14584474
20	0x3bcb3caa	0.0062023
21	0xbf1ff315	-0.6248029
22	0xbd629be9	-0.05532447
23	0xbf6bec9c	-0.9215791
24	0xbf0cc033	-0.5498077
25	0xbf20893e	-0.62709415
26	0xbdd7060d	-0.10499201
27	0x3e926b2e	0.28597397
28	0xbed90f69	-0.4239457
29	0xbeb712af	-0.35756442
30	0x3eb8fc02	0.36129767
31	0xbec7f0a1	-0.39050773
32	0xbda05c1d	-0.07830069
33	0xbf0e92bc	-0.5569265
34	0xbd9ca9fe	-0.07649611
35	0xbf20ed5d	-0.6286219
36	0xbf1b9ddb	-0.60787743
37	0xbf25b4b5	-0.6472886
38	0xbebef073	-0.37292823
39	0xbf109aa3	-0.56485957
40	0xbf023402	-0.5086061
41	0x3d5e5d82	0.054288395
42	0x3f0ddff8	0.55419874
43	0xbeb2d205	-0.34925857
44	0xbed3d39f	-0.41372392
45	0x3e4c973e	0.1997957
46	0x3e564f49	0.20928682
47	0xbf20e1b3	-0.6284439
48	0xbeeb3735	-0.45940557
49	0xbeb8ee14	-0.3611914
50	0xbf141ec5	-0.5785945
51	0x3d54aa18	0.051920027
52	0xbef4873f	-0.47759435
53	0xbf0b642b	-0.5444972
54	0x3f031d6e	0.5121678
55	0x3f055b4c	0.5209243
56	0xbf0e15f7	-0.55502266
57	0xbeba87e8	-0.36431813
58	0x3ed10c9b	0.4082993
59	0x3bc66635	0.0060546645
60	0x3e5de720	0.21670198
61	0xbf52c838	-0.8233676
62	0xbe8ac27e	-0.2710151
63	0xbea32569	-0.3186448
64	0x3e5f694e	0.21817514
65	0xbf4c4203	-0.79788226
66	0xbebfa123	-0.37427625
67	0xbf742e1a	-0.95382845
68	0xbcbf2f48	-0.023337975
69	0xbef9da1f	-0.48799226
70	0xb8f3bbcf	-0.00011622125
71	0x3da9f93f	0.08299493
72	0x3ec6b403	0.38809213
73	0x3e9dd8dc	0.30829513
74	0x3d4691cb	0.048478883
75	0xbec771d9	-0.38954046
76	0xbf168d37	-0.58809227
77	0xbf747cac	-0.95502734
78	0xbee4a3da	-0.4465626
79	0x3ea27dd7	0.31736633
80	0x3dbedc78	0.09319395
81	0x3eac8be1	0.3370047
82	0xbe8a5e59	-0.27025107
83	0x3f9485bd	1.1603314
84	0xbf12828e	-0.5723046
85	0xbe9655ae	-0.29362243
86	0xbea2ab46	-0.31771296
87	0xbe544581	-0.20729639
88	0xbdcd003d	-0.10009811
89	0xbea13b14	-0.31490386
90	0xbf85e85d	-1.0461537
91	0xbcdc0d23	-0.026861733
92	0x3c9b879f	0.018985568
93	0xbe9efa47	-0.3105032
94	0xbe154ab1	-0.14579274
95	0x3e3c4c3c	0.18388456
96	0xbf0c74ad	-0.54865533
97	0xbef206d0	-0.47270823
98	0x3ec84393	0.39114055
99	0x3efc5c73	0.49289283
100	0xbee8a99e	-0.45441908
101	0x3e61947b	0.22029297
102	0xbd7032de	-0.05864226
103	0xbf3b8f61	-0.73265654
104	0xbf26ce99	-0.65158993
105	0x3e912736	0.28350228
106	0xbe5db5c8	-0.21651375
107	0x3f01f8dd	0.5077036
108	0x3efa0720	0.4883356
109	0xbecb2f1e	-0.39684385
110	0xbea2ba89	-0.3178294
111	0xbf34e055	-0.70654804
112	0xbecac4ce	-0.39603275
113	0xbe763c94	-0.24046546
114	0xbb9b1dae	-0.0047337627
115	0x3d206029	0.039154205
116	0xbe45675c	-0.1927771
117	0xbeed8362	-0.463893
118	0xbf60366c	-0.8758304
119	0xbdae5693	-0.085126065
120	0xbe29343a	-0.16523829
121	0xbf38f399	-0.722467
122	0x3dfd3eba	0.1236548
123	0x3e11b5d1	0.14229514
124	0xbf651ad3	-0.89494056
125	0x3ec0585d	0.37567416
126	0xbeb5cfa0	-0.35509968
127	0x3d16d9de	0.036828868
128	0xbd520820	-0.05127728
129	0xbee0f5e4	-0.439376
130	0xbe74c963	-0.23904948
131	0x3e7060f3	0.23474483
132	0xbddc7853	-0.107651375
133	0xbe8a7d67	-0.270488
134	0xbf026058	-0.5092826
135	0x3ca961b7	0.020676477
136	0x3e233204	0.15937048
137	0xbec884f1	-0.39163926
138	0xbf33a021	-0.7016621
139	0xbb60c357	-0.003429612
140	0xbe8345bc	-0.2563914
141	0x3e88bcf8	0.26706672
142	0xbef4350d	-0.47696725
143	0xbe74e203	-0.23914342
144	0xbf4864c1	-0.7827874
145	0xbf5593bd	-0.83428556
146	0x3ea04e1b	0.3130959
147	0x3dab3243	0.08359196
148	0x3eb13f8d	0.34618798
149	0x3dea570c	0.11442384
150	0x3c81befe	0.015838142
151	0xbeeb33dc	-0.45938003
152	0xbdc6d9b5	-0.09709493
153	0xbee9d25b	-0.456683
154	0xbe71edb4	-0.23625833
155	0xbf14ce3e	-0.581272
156	0x3e9606ed	0.2930216
157	0x3ed05f46	0.40697688
158	0xbeac7d13	-0.33689174
159	0x3e9b5d86	0.3034479
160	0xbf9864a4	-1.1905713
161	0xbe96746f	-0.29385707
162	0xbf0f3889	-0.5594564
163	0xbf3fdb99	-0.74944454
164	0xbefb5c1c	-0.4909371
165	0xbf0c1f1b	-0.54734963
166	0xbf1917e2	-0.5980207
167	0xbf0747d6	-0.5284399
168	0x3f0eec8c	0.5582969
169	0xbca55e71	-0.020186635
170	0xbf93ea5d	-1.1555897
171	0xbe8b39cc	-0.27192533
172	0x3de0ef33	0.10983124
173	0x3d56abb9	0.05240986
174	0xbf5ee53a	-0.8706852
175	0xbf07580f	-0.5286874
176	0xbf009c5f	-0.50238603
177	0x3dc2746e	0.094948635
178	0x3d5e0fb9	0.054214213
179	0xbdc86fe2	-0.09786965
180	0x3eb9e50b	0.36307558
181	0xbe1b3e0b	-0.15160386
182	0x3db9c228	0.090702355
183	0x3e4fa3e6	0.20277366
184	0x3e999483	0.29996118
185	0xbe319358	-0.17341363
186	0xbd87ee13	-0.06637206
187	0xbf23daf7	-0.6400599
188	0xbe5ccf1a	-0.21563378
189	0xbefc0d71	-0.49229005
190	0xbf6b29f7	-0.9186091
191	0xbf0d74ce	-0.55256355
192	0x3bee4296	0.0072711213
193	0x3d2247d4	0.039619282
194	0xbdf1e6dc	-0.11811611
195	0xbf176541	-0.59138876
196	0xbecab222	-0.3958903
197	0x3eb76355	0.35817972
198	0xbedb9330	-0.42885733
199	0xbf4102ba	-0.75394785
200	0xbee343b9	-0.44387606
201	0xbeaf2fd4	-0.34216177
202	0xbef6c386	-0.48196048
203	0xbc9d6254	-0.019211926
204	0xbf943b35	-1.1580569
205	0xbe67b4ea	-0.22627607
206	0xbe5345e2	-0.20632127
207	0xbe4f36d1	-0.20235755
208	0xbd663f92	-0.05621297
209	0xbf261b04	-0.6488497
210	0x3d9f9cb4	0.077935606
211	0x3e8d3004	0.27575696
212	0xbf37aadd	-0.7174509
213	0xbed0491e	-0.40680784
214	0x3f09d28b	0.5383689
215	0xbf14d1dd	-0.58132726
216	0xbdf1a0bc	-0.11798236
217	0x3d381d92	0.044950075
218	0xbf3dcc2f	-0.74139684
219	0xbed2d6cd	-0.41179505
220	0x3eda90af	0.4268851
221	0xbe67467a	-0.22585478
222	0x3cdb37a8	0.026759937
223	0x3e12835c	0.14307922
224	0x3e6c7410	0.2309115
225	0xbf5577f7	-0.83386177
226	0xbe961f28	-0.29320645
227	0xbee1835e	-0.44045538
228	0xbeb3c9c8	-0.35114884
229	0xbf0fe7f6	-0.5621332
230	0xbdead656	-0.114666626
231	0xbf25569a	-0.6458527
232	0xbef9fbd4	-0.48824942
233	0xbf5121a6	-0.8169197
234	0x3eb9fc92	0.36325508
235	0xbf1db218	-0.61599874
236	0x3f0b6566	0.54451597
237	0x3e25945e	0.16169879
238	0xbdf325e6	-0.11872463
239	0xbe2c9d61	-0.1685691
240	0x3ee0c71e	0.43901914
241	0xbe910ba1	-0.28329185
242	0xbed073d6	-0.40713376
243	0xbe01cbb8	-0.12675369
244	0xbb5f5e2a	-0.0034083226
245	0x3e1c01fd	0.15235133
246	0x3eb39c1a	0.35080034
247	0xbdeda8d7	-0.11604469
248	0xbda06866	-0.078324124
249	0xbedc9b60	-0.43087292
250	0xbf204e44	-0.62619424
251	0x3eaed5ca	0.34147483
252	0xbea84438	-0.32864547
253	0xbe46e4ab	-0.19423167
254	0xbeefc249	-0.46827915
255	0xbebaa894	-0.3645674

linear2.weight f4 [2, 1024]
0	0xbd079d8c	-0.033109233
1	0xbd1543c8	-0.036441594
2	0xbbb897e0	-0.0056333393
3	0x3c92aba7	0.017904116
4	0xbb0f80a6	-0.0021896749
5	0xbb4f4165	-0.0031624672
6	0x3c3720e8	0.011177279
7	0x3d00573c	0.031333193
8	0xbba1403a	-0.0049209865
9	0xbcc482f8	-0.023988232
10	0xbc05b5dd	-0.008161035
11	0xbbad224f	-0.005283631
12	0x3ced7df7	0.028990729
13	0x3ceb1818	0.028698012
14	0x3cff783c	0.031185262
15	0xbbbaa6db	-0.0056961603
16	0x3d0d00a2	0.03442443
17	0xbc467001	-0.012111665
18	0x3b1ad77f	0.002362698
19	0x3c6c4c87	0.014422542
20	0xbbba36c5	-0.0056827986
21	0xbb7fe0ab	-0.0039043825
22	0xbc0d5b81	-0.008627773
23	0x3b74ed5f	0.003737293
24	0x3b016a50	0.0019747205
25	0xbc131252	-0.008976536
26	0x3cca2560	0.024676025
27	0xbc347df4	-0.011016358
28	0xbcabacb0	-0.020956367
29	0xbcbd7a98	-0.023129746
30	0x3bce3df0	0.0062940046
31	0x3afec333	0.0019436836
32	0xbae1be7b	-0.0017222905
33	0xbca503e6	-0.02014346
34	0x3bd45360	0.0064796656
35	0x3d23454c	0.03986101
36	0x3c7184df	0.014741152
37	0xbc07695c	-0.008264866
38	0x3b450f77	0.0030069032
39	0xbc69fe3b	-0.014281805
40	0xbcc965a4	-0.024584599
41	0xbc6ded0c	-0.014521848
42	0xbc7f8a2c	-0.015596908
43	0x3cb316b0	0.021861404
44	0xbceb84eb	-0.028749904
45	0xbd5769ec	-0.05259125
46	0xbc585cb0	-0.013205692
47	0xbc256a9d	-0.010096219
48	0x3ab5454c	0.0013829856
49	0xbb0d43ee	-0.0021555382
50	0xbb013376	-0.001971451
51	0x3d1b7260	0.037950873
52	0x3cc713d7	0.024301453
53	0xb973249d	-0.00023187925
54	0x3c9ca8c6	0.019123446
55	0x3cb4dc02	0.022077564
56	0x3cc587c8	0.024112597
57	0xbcbad8fa	-0.02280854
58	0xbcb09022	-0.021553103
59	0x3cc1914f	0.023628859
60	0x38e5b717	0.00010953674
61	0xbbace65a	-0.0052764835
62	0x3a40a9ef	0.0007349541
63	0xbbed019e	-0.007232859
64	0x3bcec8a4	0.0063105393
65	0x3c336929	0.010950365
66	0xbb6b27f0	-0.003588196
67	0xbafddbb1	-0.0019367841
68	0x3c367299	0.011135721
69	0x3bf7034d	0.0075382353
70	0xbc006fe9	-0.007839181
71	0xbc0cd0a5	-0.008594667
72	0xba8f6720	-0.0010940768
73	0xbcb9b717	-0.022670312
74	0xbb0cc1e9	-0.0021477884
75	0xbca91779	-0.020641075
76	0xbaea90b4	-0.0017895908
77	0xbaa97aa7	-0.001293023
78	0x3b2bb2a4	0.0026199007
79	0x3c9f76a1	0.019465746
80	0x3bdae6c0	0.0066803396
81	0xbcc4519a	-0.023964692
82	0x3c3e2e41	0.0116077075
83	0xbda51ef5	-0.08062545
84	0xba53769a	-0.0008066684
85	0xbcc1766c	-0.023616038
86	0xbc918c76	-0.017767172
87	0x3c9e51b6	0.019326072
88	0x3cdee206	0.027207386
89	0x3c632108	0.013862856
90	0xbc1d9fe7	-0.009620643
91	0xbaad371a	-0.0013215274
92	0x3b3392a4	0.0027400637
93	0x3cf5d984	0.030010946
94	0xba731e9b	-0.0009274275
95	0xbca97fc8	-0.020690814
96	0xbb11942f	-0.0022213568
97	0xbc645106	-0.013935333
98	0x3c9813b3	0.01856408
99	0xbccfed72	-0.025381777
100	0xbbf2afec	-0.0074062254
101	0xbc8f7006	-0.017509472
102	0x3aaa1b27	0.0012978063
103	0x3c68895b	0.014192904
104	0xbc64d033	-0.013965654
105	0xbc29b780	-0.010358691
106	0xbbf0207a	-0.0073280903
107	0xbcb7628d	-0.02238586
108	0x3ce437fc	0.027858727
109	0x3cdd285e	0.026996788
110	0xba2103df	-0.00061422394
111	0x3a3f0eac	0.0007288258
112	0x3c9d46ca	0.019198794
113	0x3c660b09	0.014040717
114	0x3c1099aa	0.008825699
115	0x3bbde881	0.005795539
116	0xbc36fe34	-0.011169005
117	0xbc96d934	-0.018414117
118	0xbb07c482	-0.0020716493
119	0xbc030587	-0.007996923
120	0xbc9a8f48	-0.01886715
121	0xbbaf7866	-0.005354929
122	0x3c69c645	0.014268463
123	0xbb861ac8	-0.004092548
124	0x3b33005e	0.0027313451
125	0xbad2b820	-0.0016076602
126	0x3ae8839a	0.0017739416
127	0x3cc405fc	0.023928635
128	0xbc03d423	-0.008046183
129	0xbcd900ca	-0.026489634
130	0xbc12be73	-0.008956539
131	0xbc97b236	-0.018517595
132	0xbc72ed5e	-0.014827101
133	0x3a870e22	0.0010303895
134	0xbca3ea79	-0.020009266
135	0x3b3fbfda	0.002925864
136	0xbc06d5f4	-0.008229721
137	0xbc32c6a4	-0.010911617
138	0xbb51712e	-0.003195833
139	0xbc514adc	-0.0127741955
140	0x3c8c3fc2	0.017120246
141	0x3b4fd916	0.0031715087
142	0xbb570360	-0.0032808408
143	0xbc178508	-0.009248026
144	0xbca424a1	-0.020036997
145	0xbb3ea4bc	-0.0029089889
146	0xbc2de287	-0.01061309
147	0xbce89dc2	-0.028395537
148	0xbb839489	-0.0040155095
149	0x3c031128	0.007999696
150	0xbcba622e	-0.022751894
151	0xbc3fccf8	-0.011706583
152	0xbcf89269	-0.030343251
153	0x3a36401e	0.0006952303
154	0x3ae51c2b	0.0017479708
155	0xbaa7a86d	-0.0012791284
156	0xbce90c7b	-0.028448334
157	0x3c0e13fe	0.008671759
158	0x3c9fb0d0	0.01949349
159	0xbce01b8c	-0.027356885
160	0xbba18804	-0.0049295444
161	0x3b633e20	0.003467448
162	0xbbf2bcb1	-0.0074077477
163	0xbc61c501	-0.01377988
164	0x3c9d6fde	0.019218381
165	0xbc85fe11	-0.0163565
166	0xbc62b0f7	-0.013836137
167	0x3b8ae0fe	0.004238247
168	0xbc73a1a8	-0.014870085
169	0x3cbb6b74	0.022878386
170	0xbbb0cef7	-0.005395766
171	0xbb752432	-0.0037405607
172	0xbd5014f2	-0.050801225
173	0xbb86d541	-0.0041147773
174	0xbb04c6a2	-0.0020259996
175	0x3b48df0c	0.0030650524
176	0x3a392fee	0.0007064332
177	0xbbbc3f33	-0.0057448386
178	0x3d0e73ca	0.034778394
179	0xbaa2e03d	-0.0012426447
180	0x3cd21f6c	0.025649749
181	0xbbc1131f	-0.005892172
182	0x3aad6140	0.0013227835
183	0x3bf8cb50	0.007592596
184	0x3c3373e4	0.010952923
185	0x3cbade16	0.022810977
186	0xbd4c641b	-0.049900156
187	0xbc0e7733	-0.0086954115
188	0x3b2f95c0	0.0026792139
189	0xbc0e9872	-0.008703338
190	0x3be3b64f	0.006949223
191	0xbb8410e1	-0.0040303324
192	0x3a98c0e0	0.0011654161
193	0x3b958584	0.0045630354
194	0xbc0670a9	-0.008205571
195	0xbb5664e7	-0.003271395
196	0x3aa30c83	0.0012439642
197	0xbc129210	-0.008945957
198	0xbb6ed6ad	-0.0036443875
199	0x3c6d6ca2	0.014491232
200	0xbd0e581a	-0.03475199
201	0xbc554314	-0.013016481
202	0x3c025a5a	0.007956112
203	0x3cb5b2a1	0.022179903
204	0xb84815e4	-4.7704103e-05
205	0xbc0ca316	-0.008583805
206	0xbc8632de	-0.016381677
207	0xbc1af528	-0.009457864
208	0xbb70989a	-0.0036712051
209	0xbd41e580	-0.04733801
210	0xbbef2e80	-0.0072992444
211	0xbc08be97	-0.008346221
212	0xbb4e5628	-0.0031484459
213	0xbc18ebcb	-0.009333561
214	0x3b7eade0	0.0038860962
215	0x3a8902f5	0.0010453152
216	0xbc1766e5	-0.009240841
217	0x3c2af106	0.010433441
218	0xbc23f6de	-0.010007588
219	0xbb91b734	-0.0044468883
220	0x3c9e3ad2	0.019315157
221	0x3cde6dd6	0.027151983
222	0xbc93d1e2	-0.018044416
223	0xbc200820	-0.009767562
224	0x3bd250c1	0.006418318
225	0x3a2bae6f	0.0006549125
226	0x3a1d9451	0.00060111756
227	0xbacfe514	-0.0015861117
228	0xbc1780b9	-0.0092469985
229	0x3bb87e05	0.005630257
230	0x3bbb42bd	0.005714743
231	0x3b95e589	0.004574482
232	0x3cddda4c	0.027081631
233	0xbbfea463	-0.0077710613
234	0x3c0969dc	0.008387055
235	0x3b040e68	0.0020150188
236	0xbbcbd720	-0.0062207133
237	0xb918353c	-0.00014515681
238	0x3d657554	0.056020096
239	0x3bda6010	0.0066642836
240	0xbb381490	-0.0028088428
241	0xbb21cd23	-0.0024688921
242	0xbc23ba28	-0.009993114
243	0x3b706ed1	0.0036687145
244	0x3ca9e390	0.020738393
245	0xbb851df2	-0.0040624077
246	0x3baee320	0.005337134
247	0x3b363395	0.0027801741
248	0x3b247330	0.002509307
249	0xbc3979bc	-0.011320528
250	0x3c07669d	0.008264211
251	0x3cc5318e	0.024071481
252	0xbc0731f2	-0.008251654
253	0x3caf4159	0.021393465
254	0x3d598b76	0.053111516
255	0xbd5778a3	-0.052605283

linear2.bias f4 [2]
0	0xc00c2bb9	-2.1901686
1	0xc017d7df	-2.3725507
