model/model.pth (torch, 26825 bytes, 4 tensors)

linear1.weight f4 [1024, 3]
0.21822476 -0.70072263 -0.48911467 -0.32125163 0.22978505 -0.2752384 -0.40212688 -0.5555307
0.106299326 0.040024225 -0.13622105 -0.2110353 -0.01716809 0.024637165 -0.41189465 0.09682555
-0.6519802 -0.22010209 0.0136973215 -0.04671721 -0.39908344 -0.012542195 0.017016757 -0.718004
-0.5132561 -0.51032794 0.20931102 0.042884395 -0.18133737 -0.10179822 -0.030825676 -0.5068261
-0.01963578 -0.4029801 -0.29052934 0.05039609 0.13413712 -0.4867721 -0.45460036 -0.44119957
-0.4431187 0.087599695 -0.5011989 0.21660015 -0.39096126 -0.10576645 -0.027791452 -0.00068423705
0.0031251486 -0.015092644 -0.7903375 -0.5416403 -0.5025961 0.062008794 -0.19896035 0.18012688
-0.12785728 -0.10878989 0.13167669 -0.26203546 -0.19365387 -0.16613634 -0.0032328558 -0.4751475
-0.6785963 0.139697 -0.17293325 0.4161973 -0.4545744 -0.4001106 0.08564381 -0.08844341
-0.29049468 -0.28285924 -0.21783006 0.11522841 -0.23043181 -0.52091074 -0.20786552 -0.6315986
0.056933224 -0.08211363 0.09396927 -0.3943491 0.052363813 -0.17691427 -0.23254068 -0.19217949
0.23643611 -0.34136596 -0.15606093 0.03273363 -0.028751083 -0.36732644 0.45550168 -0.5923983
0.04284518 -0.14356449 -0.11514887 -0.07791946 -0.30970785 0.0066519636 0.12610972 -0.45524004
-0.578583 0.020578466 -0.39761797 -0.070100546 -0.09594985 -0.3525217 0.036099996 -0.038363367
0.030820865 -0.51115614 -0.4242995 -0.011652228 -0.07984606 0.015837716 -0.048337165 -0.8459798
-0.21255277 -0.20023221 0.033036955 -0.09547498 -0.0577391 0.0141170975 0.011299822 -0.33728063
-0.034246653 -0.27227184 -0.4668632 0.15861823 -0.24118869 -0.57344484 -0.020746764 -0.44185945
-0.5668912 -0.5443881 -0.45972106 -0.49126276 0.07756792 0.013241625 -0.21996184 -0.09296704
-0.049384743 0.030203436 -0.46950492 -0.42023373 0.2142318 -0.23885296 0.010572795 -0.03279893
-0.15108822 -0.64808154 -0.5749919 0.053604897 -0.56445056 -0.06291994 -0.036924083 -0.2578336
-0.5592745 -0.29646927 0.0067711216 -0.026430102 -0.59511846 0.066036224 -0.55308867 -0.15201648
-0.32269207 -0.29728782 -0.22726454 0.04388514 -0.5477272 -0.09853234 0.0141192395 -0.06992103
-0.046141922 -0.1820273 0.17498967 -0.5166363 -0.08098631 0.04093657 -0.059525095 -0.030737324
-0.17581218 -0.002495201 -0.21035184 -0.49441352 0.042488314 -0.26747283 0.09370909 -0.08428816
0.107128546 -0.36760604 -0.36794156 -0.022337863 -0.004470201 -0.007818883 0.06895787 -0.15410033
-0.34322417 -0.12247358 -0.14187519 0.016813265 0.007927451 -0.053647026 -0.311758 0.15366593
-0.49148676 -0.6182117 0.07408215 -0.23549388 -0.48407614 0.121385634 -0.58726937 -0.2902243
-0.25480685 -0.33182797 -0.09342616 0.013110697 -0.049278077 -0.47085914 -0.2171462 0.24793965
-0.18306631 -0.126685 0.12612711 -0.59475726 -0.35309014 -0.03441401 -0.031277094 -0.114576876
0.120654054 -0.43610823 -0.04642584 -0.33446416 0.02468775 -0.42551842 0.051255185 -0.5195022
0.0984163 -0.31263584 -0.6718272 -0.45178795 0.48357177 -0.408601 -0.0162947 -0.60537046
0.0010545683 -0.034567002 -0.22074212 0.016282106 -0.5771231 -0.30529395 -0.41363743 -0.14263028
00000000: 5076 5f3e 8f62 33bf 3d6d fabe 187b a4be
00000010: c64c 6b3e 0cec 8cbe 93e3 cdbe 4337 0ebf
00000020: 76b3 d93d 71f0 233d 887d 0bbe a319 58be
00000030: 18a4 8cbc e1d3 c93c dbe3 d2be 794c c63d
00000040: 2de8 26bf 7162 61be bb6a 603c 8c5a 3fbd
00000050: aa54 ccbe c77d 4dbc ba66 8b3c 1ccf 37bf
00000060: c064 03bf daa4 02bf a155 563e 8ca7 2f3d
00000070: 81b0 39be 967b d0bd 2186 fcbc 5bbf 01bf
00000080: 37db a0bc 6853 cebe 43c0 94be 216c 4e3d
00000090: 3e5b 093e 313a f9be 61c1 e8be e9e4 e1be
000000a0: 74e0 e2be 7867 b33d 924e 00bf 6ecc 5d3e
000000b0: 132c c8be 159c d8bd e6aa e3bc 5f5e 33ba
000000c0: 4bcf 4c3b 2347 77bc 8f53 4abf f0a8 0abf
000000d0: 23aa 00bf effc 7d3d 43bc 4bbe 2e73 383e
000000e0: 05ed 02be 3ccd debd 41d6 063e 8329 86be
000000f0: 334d 46be a51f 2abe 52de 53bb 8846 f3be
00000100: 7db8 2dbf bb0c 0f3e 6a15 31be d017 d53e
00000110: fabd e8be 4cdb ccbe 0666 af3d d221 b5bd
00000120: b8bb 94be edd2 90be d80e 5fbe dffc eb3d
00000130: 51f6 6bbe 685a 05bf b3da 54be 72b0 21bf
00000140: d032 693d 312b a8bd f672 c03d 20e8 c9be
00000150: 707b 563d 0429 35be 251f 6ebe b3ca 44be
00000160: 4f1c 723e 85c7 aebe 70ce 1fbe b313 063d
00000170: 6487 ebbc 3612 bcbe 8437 e93e 6aa7 17bf
00000180: 6d7e 2f3d 9202 13be 2cd3 ebbd 3d94 9fbd
00000190: 0792 9ebe b7f8 d93b e822 013e 3915 e9be
000001a0: 041e 14bf 2c94 a83c 9594 cbbe e090 8fbd
000001b0: 5b81 c4bd b97d b4be 97dd 133d e822 1dbd
000001c0: 0a7c fc3c 21db 02bf c93d d9be fde8 3ebc
000001d0: 5586 a3bd 19be 813c 31fd 45bd 2292 58bf
000001e0: 6fa7 59be ac09 4dbe c251 073d 6388 c3bd
000001f0: d67f 6cbd 664b 673c e322 393c 0cb0 acbe
00000200: 3846 0cbd 3767 8bbe b108 efbe d16c 223e
00000210: 2bfa 76be 48cd 12bf 1ef5 a9bc 673b e2be
00000220: c81f 11bf 055d 0bbf 8f60 ebbe cb86 fbbe
00000230: eedb 9e3d 67f3 583c ad3d 61be 8165 bebd
00000240: a847 4abd 326d f73c f362 f0be e028 d7be
00000250: 955f 5b3e df95 74be 8439 2d3c 2c58 06bd
00000260: dfb6 1abe ace8 25bf ab32 13bf cf90 5b3d
00000270: d57f 10bf 2bdc 80bd b53d 17bd c402 84be
00000280: 9d2c 0fbf d2ca 97be 49e0 dd3b f183 d8bc
00000290: af59 18bf 003e 873d 3897 0dbf 35aa 1bbe
000002a0: e537 a5be 1c36 98be 09b8 68be e8c0 333d
000002b0: da37 0cbf 53cb c9bd 6254 673c c232 8fbd
000002c0: 50ff 3cbd 5d65 3abe 7e30 333e 4742 04bf
000002d0: 27dc a5bd 1bad 273d 96d0 73bd d7cc fbbc
000002e0: 1c08 34be 8786 23bb 7966 57be c523 fdbe
000002f0: 3a08 2e3d 33f2 88be 8dea bf3d 459f acbd
00000300: 3666 db3d dc36 bcbe d662 bcbe e5fd b6bc
00000310: c47a 92bb c61a 00bc c939 8d3d 7acc 1dbe
00000320: 14bb afbe 6ed3 fabd bb47 11be f9bb 893c
00000330: 24e2 013c fcbc 5bbd bf9e 9fbe 9a5a 1d3e
00000340: 27a4 fbbe 1f43 1ebf 62b8 973d 4f25 71be
00000350: d4d8 f7be 0899 f83d 4957 16bf 4898 94be
00000360: 0b76 82be 5be5 a9be 3756 bfbd 40ce 563c
00000370: cfd7 49bd 7314 f1be 935b 5ebe e4e3 7d3e
00000380: bc75 3bbe b6b9 01be 7727 013e 0342 18bf
00000390: 3bc8 b4be b4f5 0cbd 691c 00bd 48a7 eabd
000003a0: 7919 f73d 9449 dfbe 0629 3ebd e33e abbe
000003b0: f73d ca3c 8ddd d9be f5f0 513d 19fe 04bf
000003c0: 7c8e c93d ce11 a0be defc 2bbf c050 e7be
000003d0: b896 f73e 2634 d1be 767c 85bc 8ff9 1abf
000003e0: 7139 8a3a 2196 0dbd 390a 62be 0d62 853c
000003f0: 57be 13bf 7d4f 9cbe 49c8 d3be ac0d 12be

linear1.bias f4 [1024]
-0.59793705 0.038847115 -0.4056319 -1.0343822 -0.30318415 0.02762901 -0.27336827 -0.342007
-0.5198205 -0.8984543 -0.1815475 -0.72409636 -0.2506529 -0.15225303 0.29092243 -0.13535629
-0.27842516 -0.56000435 -0.77528363 -0.6369559 -0.45348012 -0.009780953 -0.34375948 0.014023189
0.49448785 0.482876 -0.13808863 0.4168798 -0.40975934 0.24904276 0.40471438 0.44954586
-0.008094595 -0.19359809 -0.16459846 -0.055788416 -0.73313755 -0.17257857 0.53433496 -0.37816614
-0.6167175 -0.65267634 -0.7487271 -0.8823421 -0.23508002 -0.23229754 -0.57124054 -0.31498
-1.0380515 0.15105645 -0.18858485 -0.17731003 0.31395894 0.079139225 -0.2555508 -0.08031202
-0.25256416 -0.18817157 0.06357694 -0.50698304 -0.023888223 -0.7708846 0.0020991233 -0.18691275
0.2397822 -0.008936443 -0.17310448 -0.55371964 -0.3202331 -0.43100333 -0.24622409 -0.47148854
-0.19666389 -0.10598568 -0.43757302 -0.16095644 -0.36959857 -0.2861143 -0.12457101 0.40770164
0.16252719 -0.27257884 -0.02337309 -0.51272756 0.24831675 0.22937094 -0.33034265 0.3771897
-0.8188739 0.3879187 -0.273598 0.19165365 -0.065076634 -0.16712497 -0.009683547 -0.024096519
-0.29260308 0.32376793 -0.29307112 -0.63159937 0.31823286 0.24168707 -0.49670148 -0.38449267
-0.8267746 -0.14965856 -0.50981086 -0.36672014 -0.9067365 -0.07356827 -0.31340706 -0.52542216
-0.5117181 0.07237214 -0.37967104 -0.22032832 -0.5483555 -0.30059355 -0.4927535 0.104630664
-0.47401816 -0.7894072 0.17525522 0.06791881 0.010995224 -0.10312469 -0.015789885 -0.004644162
0.37708735 -0.33875498 0.097256355 -0.5712014 0.21129596 0.576445 -0.38853675 -0.12123419
-0.32863274 0.15601021 0.16904178 -0.5531164 -0.63584024 0.38971898 0.0018316307 -0.29739746
0.4766619 -0.66471034 -0.32183355 -0.5510461 0.24520315 0.034469813 0.20583013 0.21206889
0.48107556 -0.22012003 -0.7047759 -0.08498466 -0.028659075 0.08715291 0.0023775217 -0.89366084
-0.40219957 -0.50616056 -0.2514813 -0.24438953 -0.644074 -0.83092344 -0.36904827 -0.1296407
-0.5074981 0.5286731 -0.21006565 0.038612057 0.07159849 -0.6063448 -0.14611413 0.29185593
-0.04255151 -0.2951801 -0.45958546 -0.06255009 -0.26125526 0.11483267 -0.14033946 -0.58803225
-0.236061 -0.922687 -0.82841974 0.09874516 0.24757831 -0.08532877 -0.23642156 -0.49114046
-0.16029702 0.105278865 0.037889615 -0.54727644 -0.07263262 0.041723955 0.22434998 -0.17656305
-0.32988915 0.4906909 -0.18084867 0.04146529 -0.1288225 -0.68276936 -0.43123734 -0.42700374
-1.0167868 -0.6169029 -0.45858386 -0.42540643 -0.5467457 -0.31424707 -0.4495183 -0.67979103
0.09080126 -0.40778625 -0.14583859 -0.48816442 0.27872866 0.020543745 -0.80857015 -0.39495477
-0.43476143 -0.8953399 -0.7392573 0.5518412 0.17534965 -0.86388224 -0.08139195 -0.7036522
0.4698773 -0.43174505 0.2252993 -0.12315055 -0.6138047 0.07601089 -0.49736103 0.098615006
-0.15135957 -0.4167791 -0.11163392 -0.4841203 -0.5379423 -0.4947806 -0.56002665 -0.4461506
-0.13290338 -0.1216693 0.071032085 -0.3084628 -0.7272286 0.26371288 -0.20841064 -0.37789607
00000000: 6712 19bf 271e 1f3d fcae cfbe a366 84bf
00000010: f43a 9bbe 3c56 e23c edf6 8bbe 8b1b afbe
00000020: f512 05bf 1a01 66bf 96e7 39be 615e 39bf
00000030: 9455 80be 38e8 1bbe c9f3 943e d79a 0abe
00000040: be8d 8ebe 725c 0fbf fd78 46bf 8b0f 23bf
00000050: 8c2e e8be 4a40 20bc 3e01 b0be 85c1 653c
00000060: 832d fd3e 863b f73e 1b67 0dbe 4571 d53e
00000070: facb d1be 1105 7f3e b936 cf3e e02a e63e
00000080: 319f 04bc 943e 46be 808c 28be 6582 64bd
00000090: e7ae 3bbf 70b8 30be 2dca 083f fe9e c1be
000000a0: 33e1 1dbf cc15 27bf 94ac 3fbf 2ce1 61bf
000000b0: d1b8 70be 68df 6dbe d23c 12bf 0f45 a1be
000000c0: dfde 84bf 8bae 1a3e 631c 41be c390 35be
000000d0: 3abf a03e bf13 a23d 8ed7 82be a17a a4bd
000000e0: 1750 81be 0cb0 40be a034 823d a4c9 01bf
000000f0: 3cb1 c3bc b158 45bf 7291 093b 0e66 3fbe
00000100: 7789 753e 296a 12bc 4d42 31be 92c0 0dbf
00000110: 98f5 a3be 78ac dcbe 2b22 7cbe f266 f1be
00000120: 4262 49be 050f d9bd 9209 e0be c4d1 24be
00000130: 063c bdbe 937d 92be 161f ffbd 45be d03e
00000140: 876d 263e 748f 8bbe ec78 bfbc 1d42 03bf
00000150: bf46 7e3e 37e0 6a3e ac22 a9be 021f c13e
00000160: b8a1 51bf 489d c63e 0915 8cbe db40 443e
00000170: e646 85bd cf22 2bbe bda7 1ebc 1066 c5bc
00000180: 12d0 95be e9c4 a53e 6b0d 96be 7fb0 21bf
00000190: 6bef a23e d17c 773e a84f febe 39dc c4be
000001a0: 80a7 53bf 1840 19be f782 02bf bec2 bbbe
000001b0: e21f 68bf f6aa 96bd e476 a0be 1182 06bf
000001c0: f5ff 02bf d837 943d 3e64 c2be bf9d 61be
000001d0: 0761 0cbf 66e7 99be 304a fcbe 9a48 d63d
000001e0: 82b2 f2be 9716 4abf 1b76 333e 0419 8b3d
000001f0: 5025 343c 0a33 d3bd ca59 81bc 0e2e 98bb
00000200: 9811 c13e 4b71 adbe 572e c73d 413a 12bf
00000210: f85d 583e e691 133f 4aee c6be a249 f8bd
00000220: 8d42 a8be 24c1 1f3e 4a19 2d3e 0999 0dbf
00000230: 6dc6 22bf 3f89 c73e 5413 f03a 7b44 98be
00000240: 070d f43e 752a 2abf 5ec7 a4be 5b11 0dbf
00000250: 8916 7b3e 3830 0d3d 22c5 523e 9628 593e
00000260: 894f f63e 2567 61be 326c 34bf 700c aebd
00000270: 70c6 eabc 3a7d b23d 32d0 1b3b f5c6 64bf
00000280: 1aed cdbe bd93 01bf 28c2 80be 4041 7abe
00000290: 09e2 24bf 66b7 54bf e5f3 bcbe 88c0 04be
000002a0: 65eb 01bf 1f57 073f 731b 57be ad27 1e3d
000002b0: 3ba2 923d 6a39 1bbf f19e 15be 246e 953e
000002c0: 7e4a 2ebd d921 97be c94e ebbe 431a 80bd
000002d0: 40c3 85be 642d eb3d 26b5 0fbe 4889 16bf
000002e0: fab9 71be 3735 6cbf 5113 54bf e73a ca3d
000002f0: 2b85 7d3e dac0 aebd 7e18 72be c376 fbbe
00000300: e724 24be 729c d73d 2432 1b3d 4f1a 0cbf
00000310: 69c0 94bd bde6 2a3d 00bc 653e f2cc 34be
00000320: 3be7 a8be d63b fb3e 6530 39be 82d7 293d
00000330: 0cea 03be f9c9 2ebf 24cb dcbe 3ca0 dabe
00000340: 1226 82bf 59ed 1dbf 81cb eabe dfce d9be
00000350: 87f7 0bbf fee4 a0be 4327 e6be c906 2ebf
00000360: 03f6 b93d 5cc9 d0be b656 15be b0f0 f9be
00000370: 86b5 8e3e 5b4b a83c 74fe 4ebf 8337 cabe
00000380: 0d99 debe ff34 65bf f73f 3dbf 7745 0d3f
00000390: dc8e 333e 6327 5dbf d3b0 a6bd 8d22 34bf
000003a0: c293 f03e b00d ddbe dcb4 663e 5b36 fcbd
000003b0: 4e22 1dbf 99ab 9b3d 1ba6 febe aaf6 c93d
000003c0: 01fe 1abe 1264 d5be 53a0 e4bd 9ede f7be
000003d0: 96b6 09bf e253 fdbe e85d 0fbf da6d e4be
000003e0: d317 08be c12d f9bd 4579 913d d6ee 9dbe
000003f0: a72b 3abf 6005 873e 9969 55be 987b c1be

linear2.weight f4 [2, 1024]
0.022075763 0.0025512427 -0.010875241 -0.0023733247 0.0025651713 0.0046861675 -0.02345947 -0.0017941715
0.00045730808 -0.0023698437 0.00036398432 -0.031205652 0.004108664 0.01486963 -0.011759549 0.008854831
0.00019444726 0.010764226 -0.006667044 -0.034063175 0.0012911098 0.006865057 0.037172776 -0.008098197
0.024396673 0.02711698 -0.02910208 -0.022164524 -0.013682757 -0.008968674 -0.0042213444 -0.007597793
-0.00435143 -0.018076662 -0.015437915 0.0040031816 -0.0050121397 0.0029246076 -0.01679533 0.001900756
-0.017987683 -0.0054904297 0.00197092 -0.017604169 -0.009025533 -0.017392907 -0.014256289 -0.0031725776
-0.0046956423 -0.0009220876 -0.007603531 0.034946494 0.009201674 0.0091491975 0.0008270691 -0.022336833
0.027131632 0.0212779 -0.0033044086 -0.01679899 -0.0009588092 -0.013570224 -0.010302132 -0.0066934414
0.008200073 -0.009393076 0.040516265 0.0014225532 -6.207257e-05 0.044510394 -0.12485418 0.0014199705
-0.014945749 0.0028212075 -0.0056067556 0.01774283 0.016893271 -0.008698857 0.019549074 0.01838952
0.0044209687 -0.022741754 0.015439845 -0.0010208079 -0.020288777 0.015471417 0.024695821 -0.0134522505
0.010996452 -0.008232467 -0.003464006 -0.014500394 -0.0034452449 -0.0027689633 -0.0065905163 -0.003333888
-0.0075766854 -0.019487921 -0.03843484 -0.010426159 -0.0005846992 0.0012335032 -0.010070366 0.001948461
0.0033513354 0.015342169 -0.026471976 0.0040687565 0.00134389 0.0013156581 0.026179668 0.009388767
-0.0062200762 0.0023109796 -0.070140645 -0.0037868104 0.01788408 -0.011591849 0.0021126943 0.001671873
-0.0027943598 -0.0012960115 0.024069697 -0.025368948 -0.003577329 -0.019153947 -0.011739707 0.014650926
-0.009427361 0.0038077477 0.037518617 -0.0009620558 0.003990609 -0.016292155 0.00113137 -0.0009347905
-0.02028046 -0.00462029 0.016064737 0.03396508 -0.008175489 0.019135453 -0.030954558 0.0052305707
0.03819605 0.00024528068 -0.029966764 -0.009949529 0.008988634 0.028775733 -0.011432234 -0.0068614813
-0.014297017 0.009854183 -0.0053608357 0.0036742059 -0.03427207 0.032369807 0.006183337 -0.002233993
-0.0043102754 -0.01538324 -0.009332675 -0.0032507053 -0.0032585175 -0.009760436 -0.009649219 -0.009774087
0.008332954 -0.01782431 -0.015239643 0.014750031 -0.012023393 -0.013853671 -0.011786139 0.0069700107
0.018631909 0.021407116 -0.004858539 -0.017643886 -0.0058180243 -0.011303159 -0.00081669143 0.002447839
-0.012733542 -0.022095518 -0.0046978635 0.059608597 0.026353652 -0.026758857 0.02748914 0.012259315
0.0012133822 -0.0068248957 -0.025126893 0.027179472 -0.00027821053 -0.00044986606 0.025086842 -9.166077e-05
-0.00036824693 0.026803587 -0.028809652 0.0058536003 0.004503647 0.0036380999 -0.008137744 -0.004888795
0.0042405813 0.0038622122 0.009019926 -0.0054896036 -0.006459527 -0.01334305 0.006495245 -0.021146346
-0.011753157 -0.014223749 0.0019083148 -0.045485068 0.0074138567 -0.007698951 -0.008063564 0.004183542
-0.05363273 -0.0064409147 0.011446082 0.02040368 -0.02026476 -0.0017999022 0.012358863 -0.005639156
0.026810955 -0.00695453 0.031055251 -0.016903779 0.011016767 -0.010370029 -0.04456093 -0.021408204
-0.011202628 0.013521526 0.06785371 0.046886537 0.0020199039 -0.0017940922 -0.0062477738 -0.005558558
0.02123886 0.0047579664 0.012443023 -0.02616563 -0.028801613 0.005784381 -0.0032729977 -0.010888703
00000000: 3bd8 b43c c032 273b 112e 32bc c889 1bbb
00000010: 6f1c 283b 6c8e 993b 132e c0bc 682a ebba
00000020: dac2 ef39 614f 1bbb 26d5 be39 ffa2 ffbc
00000030: f9a1 863b c09f 733c 20ab 40bc da13 113c
00000040: 8ae4 4b39 705c 303c 3877 dabb d485 0bbd
00000050: 753a a93a 46f4 e03b 7b42 183d 4dae 04bc
00000060: 88db c73c 6e24 de3c 7c67 eebc 6092 b5bc
00000070: a42d 60bc 58f1 12bc 3453 8abb e8f6 f8bb
00000080: 7196 8ebb 8215 94bc 4fef 7cbc 1f2d 833b
00000090: e03c a4bb c6aa 3f3b 5c96 89bc ca22 f93a
000000a0: e85a 93bc 10e9 b3bb 8d2a 013b 9e36 90bc
000000b0: d4df 13bc 927b 8ebc 3693 69bc 05eb 4fbb
000000c0: e7dd 99bb 40b8 71ba 0a27 f9bb 0e24 0f3d
000000d0: 9ec2 163c 84e6 153c abcf 583a bcfb b6bc
000000e0: 2843 de3c fe4e ae3c c78e 58bb 099e 89bc
000000f0: 9958 7bba a555 5ebc 46ca 28bc a854 dbbb
00000100: 9959 063c 6be5 19bc 62f4 253d f774 ba3a
00000110: f52c 82b8 8850 363d 8cb3 ffbd 4e1e ba3a
00000120: 04df 74bc 02e4 383b e0b8 b7bb 6959 913c
00000130: c263 8a3c a785 0ebc 6125 a03c 9ea5 963c
00000140: c6dd 903b ea4c babc 67f7 7c3c a1cc 85ba
00000150: a634 a6bc d47b 7d3c e44e ca3c d466 5cbc
00000160: 762a 343c 78e1 06bc 6004 63bb 1093 6dbc
00000170: 9ec9 61bb 7f77 35bb 42f5 d7bb 5c7d 5abb
00000180: d845 f8bb 22a5 9fbc da6d 1dbd 7bd2 2abc
00000190: 8046 19ba 80ad a13a 2dfe 24bc 8163 ff3a
000001a0: 14a2 5b3b b95d 7b3c c2db d8bc 3453 853b
000001b0: 7725 b03a 2972 ac3a be76 d63c 58d3 193c
000001c0: c8d1 cbbb ce73 173b e6a5 8fbd 232c 78bb
000001d0: a281 923c bdeb 3dbc 2175 0a3b c022 db3a
000001e0: 9421 37bb eede a9ba d02d c53c 8ad2 cfbc
000001f0: 9f71 6abb bde8 9cbc e657 40bc 700a 703c
00000200: 3875 1abc 688b 793b 1fad 193d 7932 7cba
00000210: a8c3 823b 2077 85bc 7a4a 943a bb0c 75ba
00000220: 3523 a6bc cd65 97bb 329a 833c f81e 0b3d
00000230: 7cf2 05bc f4c1 9c3c 6a94 fdbc 3565 ab3b
00000240: 7673 1c3d 0499 8039 dc7c f5bc 5903 23bc
00000250: 1045 133c 16bb eb3c 444e 3bbc 47d6 e0bb
00000260: 093e 6abc 7073 213c f3a9 afbb f2ca 703b
00000270: df60 0cbd 3496 043d 979d ca3b 2f68 12bb
00000280: 363d 8dbb fc09 7cbc 13e8 18bc c909 55bb
00000290: da8c 55bb 3cea 1fbc c217 1ebc 7e23 20bc
000002a0: f186 083c 4a04 92bc b2af 79bc 1daa 713c
000002b0: c4fd 44bc 82fa 62bc a61a 41bc b064 e43b
000002c0: f2a1 983c fa5d af3c 6134 9fbb e989 90bc
000002d0: 20a5 bebb e330 39bc 3c17 56ba ec6b 203b
000002e0: 59a0 50bc a901 b5bc 89f0 99bb 2528 743d
000002f0: 9de3 d73c 6435 dbbc e830 e13c 4bdb 483c
00000300: 5a0a 9f3a 60a3 dfbb ead6 cdbc 7ca7 de3c
00000310: c9dc 91b9 00dc ebb9 ec82 cd3c 003a c0b8
00000320: 4411 c1b9 3293 db3c 3802 ecbc 8fcf bf3b
00000330: 5493 933b 306d 6e3b 2c54 05bc 2f32 a0bb
00000340: 93f4 8a3b 2b1d 7d3b 50c8 133c 22e2 b3bb
00000350: 71aa d3bb cf9c 5abc 10d6 d43b 1a3b adbc
00000360: 5090 40bc ba0a 69bc 6b20 fa3a 8d4e 3abd
00000370: f0ef f23b 7b47 fcbb 0a1d 04bc 1816 893b
00000380: fead 5bbd 4f0e d3bb 5988 3b3c 9e25 a73c
00000390: 4802 a6bc b2ea ebba d47c 4a3c abc8 b8bb
000003a0: a6a2 db3c d3e2 e3bb 9567 fe3c cb79 8abc
000003b0: ab7f 343c 0ee7 29bc 8685 36bd 4260 afbc
000003c0: 3a8b 37bc 6489 5d3c e3f6 8a3d 190c 403d
000003d0: 5d60 043b bf27 ebba 20ba ccbb 9024 b6bb
000003e0: 1efd ad3c b7e8 9b3b d2dd 4b3c 4e59 d6bc
000003f0: 5cf1 ebbc e88a bd3b ca7f 56bb 8866 32bc

linear2.bias f4 [2]
-0.10207148 0.06284635
00000000: da0a d1bd 96b5 803d
